networks/1624913277.tflite (tflite, 59612 bytes, 18 tensors)

;;;;;conv1d/bias;;;; f4 [16]
00000000: 9de7 bdbe 0880 ca3f 9d7f 84bf e3ad 28c0
00000010: d8b6 7bbf 214e d73f cf11 b6bc c413 fbbf
00000020: b427 633f 2c7a bcbd 9398 5d3e 3a1c 423f
00000030: 08fe ad3f 90d7 1440 2084 1b3e 1e57 57bc
-0.3709077 1.5820322 -1.0351444 -2.6356132 -0.9832587 1.6820718 -0.022225289 -1.9615407
0.8873246 -0.0920299 0.21640234 0.7582432 1.3593149 2.325657 0.1518712 -0.013143329

;;;;;conv1d_1/bias;;; f4 [32]
00000000: 7043 f73e 5c7a e13e 2aba 6b3e 060c f43d
00000010: 396e 9cbe 2314 7e3f b077 153f 0647 053e
00000020: 655a b33c bd13 ab3e 92e8 653f 4a4c 1dbf
00000030: c36f 4cbe 6e31 afbe c7d1 0abf 2608 8f3d
00000040: 656d 8a3b 494e 063f c2d1 ee3e 2371 833e
00000050: 6b17 693e f5a6 143e 7224 4ebe 5f59 c03f
00000060: 79b8 90bf 6a22 ce3e f317 6bbf ed21 633c
00000070: 8d60 823f 72b1 223f 4c01 8cbf 0783 edbd
0.48293638 0.44038665 0.23020235 0.11916356 -0.30552843 0.99249476 0.58385754 0.13015375
0.02189369 0.33413497 0.89808 -0.6144453 -0.19964509 -0.342174 -0.54226345 0.06983976
0.0042244666 0.52463204 0.46644408 0.25672254 0.2276284 0.14516814 -0.2013109 1.5027274
-1.1306297 0.4026063 -0.9183342 0.013863069 1.0185715 0.6355201 -1.0937896 -0.11597257

;;;;;conv1d_2/bias;;; f4 [16]
00000000: 2fe5 bbbd 3c8b c8bf 5bda 043e 1dc3 0f3f
00000010: 6917 1d3c b101 9e3e 2ce7 873e d934 adbe
00000020: 36cf f3bd a6b5 4b3f 2f68 9e3f 426a 1abe
00000030: 1e4e d5be b5ff 943c 3b21 d23e c370 18bf
-0.09174573 -1.5667491 0.12973921 0.56157094 0.009588101 0.30860665 0.26543558 -0.33829382
-0.11904757 0.7957405 1.2375544 -0.15079597 -0.4166116 0.018188337 0.41040978 -0.5954706

;;;conv1d/bias;;; f4 [16, 1, 4, 90]
00000000: 1556 5a3e bdd5 293e b4df 7bbe 8f98 1f3e
00000010: b22e a4bb 5285 fa3d 0d96 a0be 6107 00be
00000020: e5a0 2a3e 8623 713e 56e7 983e 7a4e 783e
00000030: f0ef b33d f665 1b3e a42a 9bbe ce44 e9bd
00000040: 5de0 bb3d 5c67 50bb a222 7cbe 17b6 503e
00000050: cf19 5abe d80c 26be dbb9 0bbe 1493 a73e
00000060: c900 41be c503 ca3e e224 a4be 2fba 993e
00000070: 17ba cbbd 028f cf3c 7a2c 7d3e 3a8e 3a3e
00000080: e11d 7cbd bde0 773d 31e3 c6be ea4b af3e
00000090: 66e9 a63d c603 39be 637c 223e a031 ddbd
000000a0: fb35 123c 0b07 843d ce2f 653e 7214 e0bd
000000b0: 48c0 9b3e 911d a2be 4f50 92be 435f 213e
000000c0: c974 d03d e7e4 213e 6531 683e a174 133e
000000d0: 61f1 223d 6e99 003e b791 73be ce61 823d
000000e0: 17c3 9d3a 69f6 13bd 49e6 313d 303d 293e
000000f0: 5c8f 84bd c9a2 d13d 3f05 a4bc f797 9cbe
00000100: b14e 8d3d 7b89 e7bd 5528 a9be d9cb 3b3e
00000110: 4570 9f3e 4ff3 d23e 11bc b0be 5961 62be
00000120: f1fa 8e3d aae8 843d 9836 723e ad4a bebe
00000130: ba83 6c3e cdec b63e a804 81be 8390 8abd
00000140: cf08 c63e b27b cfbe 9529 e73d 1b61 e93d
00000150: 0bfb d6bd 01a1 43be deec 8b3e c861 b8be
00000160: c0af 333e d557 5a3f 4b52 183e 2309 35be
00000170: 842f 5ebe d259 54bd 0c38 cd3d 21c6 8f3e
00000180: a7a4 a13e c6e2 2fbc 3f7a 36be 7bae 84bd
00000190: a61e b9be fc4a 963e 10d4 ab3e 6f0f 243e
000001a0: 75ed 8fbe 33b5 86bd 4d28 a4bd 887a 9cbe
000001b0: d033 b63e fbf4 a23e 9802 8abe 0ef9 acbc
000001c0: 2a1f 98bd 6e30 19be 9d76 333d 7408 463e
000001d0: 1a95 9cbe 36fc c2bd a5cf ad3d f90e c23e
000001e0: e07a 8b3e d8f0 ea3d 1fa3 4cbe 9e35 1bbe
000001f0: 699a d83d 8d53 0b3e 760f c4bd c57b 023e
00000200: b95b 8c3e 5e29 d2be ab2e e3be 7d93 d73d
00000210: 6c96 923e 4704 953e 6967 f7bd c637 243e
00000220: 2838 aa3d 899c 84be 019f 18be e41d a33e
00000230: 7e92 13be 1fe3 1ebd 6d58 183e f70f 89be
00000240: 7b1a ee3d c3d2 03bd b363 773c 7e8c 62be
00000250: 0d3a a8be 7778 18be cfeb 883e 5a18 a13e
00000260: 34df 3ebe 88fa c83e 017f 15be bcfb e23e
00000270: 82ab 8abe 3734 b93e 0e4e d73e 2830 37be
00000280: b3c6 20bb 5e3e 5fbe f3e3 2f3e 6951 18be
00000290: 9867 06be 95b0 f23d 69dc 7fbe e994 9d3e
000002a0: a2a2 ae3e 254b 8cbe 3f9e 9d3e 8404 223d
000002b0: d64b 89be dafa b2be 730b 3dbe 1eac 80be
000002c0: 9b63 7bbe f957 553e 5f4f 643d 22ca 003f
000002d0: 09ff 4a3c a00d 66be ccbe 713e af02 95be
000002e0: 7c63 02be 4a10 b73e 000b 72be d259 f3bd
000002f0: da10 b7bd 9818 533e 2559 61be 80e5 98bd
00000300: 17ec babe f0c9 283e 544c 8abd e61c 123e
00000310: 7ee4 98be e2bf b33b 3da4 913e e3ae 223e
00000320: d5e7 d7bd 30fc 813c 787b adbe c973 c33e
00000330: 8181 d0bd 7232 2a3e 1006 903d 4655 b2be
00000340: b315 2a3e 0bcd eebd 6151 96be a423 9e3e
00000350: 0086 0c3e 4b57 e33d f916 0dbe 95ec 313e
00000360: ee0c 2e3e 4c38 a6be d4f9 fabc 9759 00be
00000370: 78da 4f3e e888 853d 2040 103d d988 6abe
00000380: 59f6 0fbd 1632 a73c 2f5a 1abe 8fed 68be
00000390: e254 463e a9bb 953e 55a8 b1be 854e 343d
000003a0: e730 a63d 65d8 87bd ccc7 883e 5853 f73d
000003b0: 97d0 2ebe 0e4d 693e dd8a a13e 7f3f 643e
000003c0: 5ea2 aa3e 799a 08bc 1c9b 87be e555 da3d
000003d0: f624 903d b553 78be 1811 31bd 5e27 1ebd
000003e0: b999 fb3d 8335 66be 14fb 3ebd 773b f33d
000003f0: 65ee 9dbd 33a4 6ebc b1ea 563e a62f db3e
0.213219 0.16585441 -0.24597055 0.1558554 -0.0050104493 0.1223246 -0.3136448 -0.12502815
0.16662939 0.23548707 0.29863995 0.24248686 0.08785999 0.15175614 -0.3030597 -0.113900766
0.09173653 -0.0031799888 -0.24622586 0.20381962 -0.21298908 -0.16215837 -0.13645117 0.327294
-0.18847956 0.39456 -0.3205939 0.3002486 -0.09947603 0.025336746 0.24723998 0.18218318
-0.061551932 0.06051706 -0.38845208 0.34237605 0.08149986 -0.18067846 0.15867762 -0.10800481
0.008924003 0.06446656 0.22381517 -0.109414 0.30420136 -0.31663182 -0.28576896 0.15758996
0.10178525 0.15809976 0.22675093 0.14399959 0.039780978 0.12558529 -0.23786055 0.06366311
0.0012036291 -0.036123667 0.043432508 0.16527247 -0.06472656 0.10236127 -0.020022033 -0.3058469
0.06899775 -0.11305519 -0.33038583 0.1833948 0.31140342 0.41201255 -0.34518483 -0.22107448
0.06981457 0.0648969 0.23653638 -0.37166348 0.23097125 0.3572754 -0.25198865 -0.06765845
0.38678595 -0.4052406 0.11287228 0.113954745 -0.104971014 -0.19104387 0.27329153 -0.360121
0.17547512 0.8529027 0.14875142 -0.17679267 -0.21697813 -0.05184347 0.10020456 0.28080848
0.31570932 -0.010735219 -0.1782007 -0.06478592 -0.36156195 0.29354084 0.33560228 0.16021512
-0.28110853 -0.0657753 -0.08015499 -0.30562234 0.35586405 0.3182753 -0.26955104 -0.021114852
-0.07427819 -0.1495988 0.04381429 0.19339162 -0.30582505 -0.09520762 0.08486871 0.37902048
0.27242184 0.114717185 -0.19984101 -0.15157172 0.105763264 0.13606091 -0.095732614 0.12742527
0.2741373 -0.41047186 -0.44371542 0.10526178 0.28630388 0.29104826 -0.12080271 0.16036901
0.08311492 -0.25900677 -0.14904405 0.31858742 -0.14411351 -0.03879082 0.14877482 -0.26769993
0.116261445 -0.03218342 0.015099454 -0.22123906 -0.3285679 -0.14889704 0.26742408 0.3146389
-0.18639833 0.3925364 -0.1459923 0.44332683 -0.27083975 0.3617265 0.42051739 -0.17889464
-0.0024532496 -0.21801135 0.171768 -0.14874806 -0.13125455 0.118500866 -0.24986424 0.30777672
0.34108454 -0.2740108 0.30784795 0.039555088 -0.2681567 -0.3495701 -0.18461399 -0.25131315
-0.24549715 0.2083434 0.055739757 0.5030843 0.012389907 -0.22466135 0.2360794 -0.2910361
-0.12733263 0.35754615 -0.23637009 -0.11882366 -0.08938761 0.2061485 -0.22006662 -0.07465649
-0.36508247 0.16483283 -0.0675284 0.14268836 -0.29861826 0.0054855207 0.28445616 0.15887026
-0.10542265 0.015867323 -0.33883262 0.38174275 -0.10180951 0.16620806 0.07032406 -0.34830683
0.1660984 -0.116602026 -0.29358962 0.30886567 0.13722992 0.11100634 -0.13778295 0.17375405
0.1699712 -0.32464826 -0.030636705 -0.12534176 0.20298183 0.065202534 0.035217404 -0.22903766
-0.035147045 0.020409625 -0.15073465 -0.22746871 0.19368318 0.29244736 -0.3469874 0.044020195
0.08114796 -0.06633071 0.26714933 0.120764434 -0.17071758 0.227833 0.31551257 0.22289847
0.33327 -0.00833761 -0.26485527 0.10660914 0.070383 -0.24250682 -0.043229192 -0.038611762
0.1228518 -0.2248135 -0.046626166 0.118765764 -0.07711486 -0.014565515 0.20987965 0.4280979

;;;conv1d_1/bias;; f4 [32, 1, 2, 16]
00000000: 816e 09bf 8ed5 50bb c894 413f 24ca 073f
00000010: ede0 f9bc bb0b 19bf ec85 c53d 0f53 9abe
00000020: 78fc 6ebe 6c7b 4abe afe7 c03e 7364 76bf
00000030: 70ac 0e3f e53d 02bf 7a75 29bf 6a77 323e
00000040: edef ccbe c792 3c3f 91ef 523f a406 a23c
00000050: eab4 04bf 1331 40bf b335 1a3d fef2 933e
00000060: a9b7 5d3e 1a4c e23e 5fd6 26bf e1af c23d
00000070: 29f2 c93d 0fbf 2fbf e3f7 07bf c46e 173f
00000080: d532 0dbf 8e50 0ebf cfc3 a73e 6c85 1c3f
00000090: 5bce c23e 0fc0 2f3f 9a1d 1fbf a49c acbe
000000a0: 3ea3 9dbe 7655 0abe 322e c5be f37b 0dbf
000000b0: 88a5 b93d f023 f4be e91d 473e 99ed b5be
000000c0: 8e11 38bf 434a 843f ebe8 07bf e064 c7be
000000d0: 9970 15bf f16a 4f3f 37c7 dc3e 5402 5abe
000000e0: 8e70 333f e581 1ebe 35ac 943e 453d d9be
000000f0: 1272 5fbf 8f54 833e ba66 f13e d96a 2b3f
00000100: 809c 41be 8412 153f 4587 8fbe 497b 3e3f
00000110: 8662 3cbf 04cf 96bf a973 8dbf 9ec3 64bf
00000120: c0b1 953f 3446 963e 9364 38bf e42f 41be
00000130: 081e b6bf f1e9 823f 0810 2a3f 981d 6d3e
00000140: 1f51 81bf c156 873f 67d4 d63e 6ea4 68bf
00000150: 1d18 743f 37f6 4b3f 02ff febe b963 5fbe
00000160: c187 483d 9488 a4be f6fc 05be 6560 07bf
00000170: 0951 873f 1664 ae3f a40e 323f 4fe2 af3e
00000180: 68aa 6cbe defe 583f 1e14 a3bf 7441 2fbf
00000190: 67d6 90be 37a0 8abe 6ddf be3e 43d2 163f
000001a0: deca bbbf 8e33 ac3e c6b8 433f 7e26 143f
000001b0: bdea 953f c601 98bf e939 26bf 4d83 50bf
000001c0: 3454 12bf 1a93 4f3f 22bd 103f 201a 663f
000001d0: 033e 7ebf 5d31 b93f 79a6 333e 9d4f 96be
000001e0: fd95 35be 937d b93e 3f08 b03e 3b3c 4c3f
000001f0: 11fa 2dbf c386 53bf f4d0 013f 0328 99bd
00000200: 19ad 14bf 13bb 8dbd f930 4b3f 904c c13e
00000210: d6ab ebbe 379e 0ebf 2e0f e8be 6b8f 31bd
00000220: 8277 473f 241d 903e 577e 82be ca73 45bf
00000230: 0345 053f 3122 143f 028e cb3e 78bd f53e
00000240: a674 a2be 1194 b1be a0c9 673f fab8 5ebf
00000250: 07f2 333f f31f dd3e 8e95 c3bb 169b 12bf
00000260: 2267 013f 5185 3e3f e2e0 11be 93e9 f13e
00000270: 6651 783e b7d3 38bf 8158 6cbf 3e9c d63e
00000280: 4640 81bf 274b afbe 600a c63e 7dcf 84bf
00000290: 598b 32bf fd5c 54be 8b83 4a3f dd1b 363d
000002a0: 9650 0b3f 6d01 51bf fa6f 973e 17c4 43bf
000002b0: eb7e 9bbf 5e85 69bf f45d 9d3e d4a0 b1be
000002c0: 0bf7 0a3e 9bb9 223f 3d7a 5e3e 96f7 84be
000002d0: ceb0 b8be 5f69 9d3e c11c 63bf 64ff 01bf
000002e0: f630 eebe c27b aa3e be0a 4e3f 0587 a83e
000002f0: d651 193f 294f 5fbf 5336 e53c afeb 343e
00000300: d234 d2be df4b efbe 913a 013f d89f a5bf
00000310: ce1c 673e 812b 5bbf 335f b9bf 9ab3 813f
00000320: 8cff 983f 20ca dd3e e8c0 87bf 809b f63e
00000330: a53c b63d c924 8e3f 4659 bebe f7f3 35bf
00000340: 61d2 05bf ba8b 4cbf def0 7e3e fef6 5a3f
00000350: 7c5d ab3f 0015 1abf 9038 89bf 122f b8bf
00000360: d616 413f 8f3a a1bf bf9f b03f dda9 683e
00000370: 59d6 d1be a261 75bd 2f46 d53e 778c 61bf
00000380: 3f31 bfbd a2b8 6f3e b312 3e3f fa22 a2bf
00000390: 7f12 453f 334b 093f f6e9 b83d 23eb d33d
000003a0: 7fa3 7dbf ce9b 0e3f fbbc a13e 51c1 01bf
000003b0: b915 36bf c20e 8f3d b0e5 193f 9b3d 1dbf
000003c0: 9b50 d73e a90e dcbe 1c16 fbbd 1324 c5bd
000003d0: a71f 61bf 5df6 8d3f 3a85 923f 6f82 6a3f
000003e0: 4051 84bf 4f20 7cbe 7911 173d 1ae1 63bf
000003f0: 6ed4 59bd 2cb7 a43e 8bb7 613f 74b3 7dbf
-0.5368424 -0.003186557 0.7561765 0.5304282 -0.03050276 -0.59783524 0.09644684 -0.30141494
-0.23338497 -0.19773644 0.3767676 -0.96247023 0.5573187 -0.50875694 -0.6619488 0.17428365
-0.400268 0.73661464 0.823968 0.019778557 -0.5183855 -0.7507488 0.037648868 0.28896326
0.21652092 0.44198686 -0.65170854 0.095062025 0.098606415 -0.6865091 -0.5311262 0.5915339
-0.5515569 -0.55591667 0.32766578 0.61141086 0.38048062 0.68652433 -0.62154543 -0.33713257
-0.30788606 -0.13509163 -0.38511807 -0.55267256 0.09064776 -0.47683668 0.19445004 -0.35532835
-0.71901786 1.0335163 -0.5308978 -0.3894415 -0.58374935 0.81022555 0.4312074 -0.2128995
0.7009362 -0.15479238 0.29037634 -0.42429557 -0.8728343 0.2565045 0.47148687 0.6695991
-0.18907356 0.5823138 -0.2803289 0.7440687 -0.73587835 -1.1781926 -1.1050922 -0.8936099
1.169487 0.29350436 -0.72028464 -0.18865925 -1.4227915 1.0227643 0.6643071 0.2315582
-1.0102881 1.057335 0.41958925 -0.908759 0.95349294 0.7967257 -0.4980393 -0.21815385
0.04895759 -0.3213545 -0.13084778 -0.5288146 1.0571605 1.3624294 0.6955359 0.34352347
-0.2311188 0.84763896 -1.2740514 -0.6845925 -0.28288576 -0.2707536 0.37279835 0.58914584
-1.4671285 0.33633083 0.76453817 0.57871234 1.1712261 -1.1875541 -0.64932114 -0.8145035
-0.57159734 0.81083834 0.56538594 0.89883614 -0.9931337 1.446819 0.17543973 -0.29357615
-0.17732997 0.36228618 0.3438129 0.79779404 -0.67959696 -0.82627505 0.5070946 -0.07478335
-0.58076626 -0.06920447 0.793716 0.37753725 -0.46029538 -0.55710167 -0.4532408 -0.043349665
0.7791673 0.28147233 -0.25487015 -0.77129805 0.5205843 0.5786467 0.3975678 0.47996116
-0.3172962 -0.34683278 0.9054203 -0.87001 0.7029118 0.43188438 -0.005968756 -0.5726789
0.50547993 0.74422175 -0.14245942 0.47248515 0.24249801 -0.7219805 -0.92322546 0.41916078
-1.009774 -0.34237024 0.3867979 -1.037582 -0.6974388 -0.20738597 0.7910697 0.044460166
0.5441984 -0.816428 0.2957762 -0.76471084 -1.2148107 -0.9121913 0.30735743 -0.34693015
0.13570802 0.6356446 0.21726318 -0.25970143 -0.3607239 0.30744454 -0.8871575 -0.5078032
-0.4652173 0.33297545 0.8048514 0.32915512 0.59890497 -0.87230164 0.027980005 0.17668031
-0.41055924 -0.46737573 0.5047999 -1.2939405 0.22569582 -0.85613257 -1.4482177 1.0132935
1.1952987 0.43318272 -1.0605745 0.48165512 0.08898286 1.1104976 -0.37177485 -0.71075386
-0.5227414 -0.79900706 0.24896571 0.8553313 1.3387904 -0.60188293 -1.0720387 -1.4389365
0.7542547 -1.2595996 1.3798751 0.22721048 -0.40983847 -0.059907563 0.41655108 -0.8810496
-0.09335565 0.23410276 0.7424728 -1.2666924 0.7698135 0.5363037 0.090289995 0.10347583
-0.990776 0.5570649 0.31589493 -0.506856 -0.71126896 0.06985237 0.601161 -0.6142213
0.42053685 -0.42979935 -0.122600764 -0.09626021 -0.8793892 1.1090809 1.1446908 0.91605276
-1.0337296 -0.246217 0.036881898 -0.8901535 -0.053181104 0.32171 0.8817069 -0.9910195

;;;conv1d_2/bias;; f4 [16, 1, 1, 32]
00000000: 1bd1 c93f 15d1 2d3f 09d7 113e 54f2 eb3e
00000010: a7f7 ecbd a00d 9dbe 0579 783f 252b 77bf
00000020: ce89 963f 2d10 2fbf bf0f afbf ce94 4b3f
00000030: c99e a6bf 0fc1 053f 6c87 853f dc09 173e
00000040: 174d cbbf 2bea 5bbf 759b 9b3e 2362 8abe
00000050: a6eb fabe f730 d73f 33b9 843f d926 3bbd
00000060: ac9d 25bf cbe5 0cbf b0b3 cbbf 7ff1 6c3f
00000070: e203 f6be b191 e93f cfa7 e53c 5bab 433f
00000080: 5a3c 8f3e c576 563f cb81 ce3e 0522 0c3f
00000090: 70f1 963e cd86 e0be 1891 763f b2b1 383f
000000a0: 75f2 22be 2d86 493f f109 123f 92e2 6d3f
000000b0: 7ff8 e23e b0f9 eb3e 7aaf 0dbf 31ba 313f
000000c0: db6d f8be fbe1 0b3f f97a a33c bde8 14be
000000d0: eb3a 663f 9c8a c0be fccb ef3e 48b3 a13f
000000e0: e3d5 c5be 1fe5 8ebf c025 8f3e 15e2 70bf
000000f0: 7b7b cc3f 7cce 173f 9242 35bf be96 22bf
00000100: c8de 653f 9e3f 1bbf 6160 893b edba a53f
00000110: 049c 483e e559 83be 451f 2bbf 87a8 0cbf
00000120: 35e0 03bf 97ba d73f 5c7c 443f 63a9 8ebe
00000130: fb48 ff3d 3c19 e5bd 2fd2 b6be 0a42 983f
00000140: 7aa1 73be db7a 5b3e dd1f 10bd ae48 3dbf
00000150: c619 903e 97ce 513d 0e35 43be 1c8c 5dbf
00000160: 8796 203f b467 dabc 314e c63e c8d7 60bf
00000170: 6720 d8be 0d62 a3bf 25e1 8cbe 40ee b03e
00000180: b5da 3ebf 9323 453f cb8b 87bf 0ee6 83be
00000190: e978 ab3e 0030 efbe 8a97 b73e a826 ba3e
000001a0: e923 633e 4672 8a3f 47c3 05be 7070 883e
000001b0: aa1f b73f 2367 ddbe e160 2abf fb4d d4bd
000001c0: 607d 81be e8b3 00bf bc8a 11bf 3424 703f
000001d0: fe0b 03bf 477b 58bf fc78 6abf ee10 72bf
000001e0: 62f3 723f 4ab4 f9be 5d07 b6be 4a74 6b3e
000001f0: 22f3 d2bd da67 943e 72fd 3abf 638b 713f
00000200: db98 a9be 222e 863f c26b 9e3f d401 e7bc
00000210: c9ca 2fbe 333d e03e a779 c53f 35ee 2fbd
00000220: 7ac2 893f 373d 83be 6387 80bd 6624 fe3e
00000230: 85ce 5ebf be89 05bf 2ba8 5c3f edda 23bf
00000240: 87a3 4cbd 80a0 40be f102 92be e4a7 d63d
00000250: 94b1 87be 18c8 9ebe 43c7 2fbe 65aa d43e
00000260: 5658 73bf b5b2 24bf bf45 84bf bfb7 0e3e
00000270: b7e1 153f 2968 163e 27fe ad3d 90a3 343f
00000280: 318c ac3e b6a9 0ebe 75c7 36bf 7011 9cbe
00000290: 2e73 92be f527 933c 3ba4 3fbf ee88 7abe
000002a0: 2b62 723c d502 1e3f 0c4d c039 03bf 823f
000002b0: 3a13 c43e dca5 2c3f f14d 853c c492 9bbe
000002c0: 4d72 0bbf 3665 033e 450e 903f ce5f 9f3e
000002d0: 2e8b b1be 2f40 f93e 9920 55bf 7f43 34bf
000002e0: b8d4 40bd 8e43 2bbd d277 8abf 26eb 54bf
000002f0: 2a1f bfbe 5cd4 833e 9ffc 04bf e82f 2a3f
00000300: f003 253f e1ec 6a3f 1b2c 6e3e e159 f43d
00000310: 41cf dcbe 0344 1ebf 6a4d c4be c7a6 fc3d
00000320: f640 f3be a377 09be 5efd e7be 8f08 39bf
00000330: 51c5 313f 79c8 143e 9bb6 d83e 0d9d f6be
00000340: 13eb 8d3e 3fc2 b43d a894 5c3f 027f a1bd
00000350: ee35 473f f70e 24bf 615c 6dbf e452 cdbd
00000360: 4c47 6a3d d63e 1c3f 76f2 63bf 3a46 54bf
00000370: b92a 56bf 0e5e 243f eada 9bbd 0e9a bd3e
00000380: bfff 213f 56df 9cbe a02a ec3e cf62 013e
00000390: c121 9a3e 205c 063f e08e 4c3e 7d7d 2d3f
000003a0: 5291 233f 8ed4 b63d 5eb3 b1be 4ce6 2bbf
000003b0: f43d 113f 579b 20be ac37 8cbc bf1b 9cbc
000003c0: c139 47be 96cf 233e 3cd7 aebe 5a86 3abf
000003d0: ef40 18be 657e f3be 58ba 973e 5bf3 ca3e
000003e0: 01e1 33bf c136 28be fc75 883e 284c 223f
000003f0: 1b6c 8c3f 7d4b 1bbf c56a 1b3f 14d8 043e
1.5766939 0.6789716 0.14242186 0.4608332 -0.115706734 -0.30674458 0.9705966 -0.9655021
1.1760805 -0.6838406 -1.367668 0.7952393 -1.3017207 0.5224771 1.0431952 0.14749855
-1.5882901 -0.85904187 0.30392042 -0.27027997 -0.4900791 1.6811818 1.0369018 -0.045691345
-0.64693713 -0.55038136 -1.5914211 0.92555994 -0.48049837 1.8247586 0.028034119 0.7643334
0.27975732 0.8377498 0.403334 0.5473941 0.29481077 -0.43852845 0.96315145 0.7214614
-0.15912803 0.7872036 0.5704642 0.92923844 0.44330212 0.46088934 -0.5534588 0.6942473
-0.48521313 0.54641694 0.019956099 -0.14541908 0.8993365 -0.3760575 0.46835315 1.2632837
-0.38639745 -1.1163672 0.27958488 -0.94094974 1.5975183 0.59299445 -0.70804703 -0.63511264
0.8979306 -0.6064395 0.0041923975 1.294767 0.19590765 -0.25654522 -0.6684459 -0.5494465
-0.5151399 1.6853818 0.7675226 -0.27863607 0.12465092 -0.11186454 -0.35707232 1.1895154
-0.23792067 0.21433584 -0.035186637 -0.73939025 0.28144664 0.05122241 -0.19063208 -0.86541915
0.62729686 -0.026660778 0.3873153 -0.87829256 -0.4221222 -1.2764298 -0.27515522 0.3455677
-0.7455247 0.77007407 -1.0589536 -0.25761455 0.33490685 -0.4671631 0.35857803 0.36357617
0.22181667 1.0816123 -0.13062774 0.26648283 1.4306538 -0.4324275 -0.66554075 -0.10366436
-0.25290966 -0.50274515 -0.56852317 0.9380524 -0.51190174 -0.84563106 -0.9159086 -0.9455708
0.9490262 -0.48770362 -0.35552493 0.2299358 -0.1030028 0.28985482 -0.73042977 0.9435331
-0.33124432 1.0482829 1.2376635 -0.028199114 -0.171672 0.4379669 1.542775 -0.04295178
1.0762475 -0.2563264 -0.06275823 0.49637145 -0.87033874 -0.521633 0.86194104 -0.6400593
-0.04996064 -0.18811226 -0.2851787 0.10481241 -0.2650267 -0.31012034 -0.17165856 0.4153625
-0.95056665 -0.64335185 -1.0333785 0.13937281 0.5854754 0.14688171 0.08495741 0.70562077
0.33700708 -0.13931927 -0.713981 -0.30482054 -0.286035 0.017963389 -0.7485997 -0.24466297
0.014793913 0.6172307 0.00036678498 1.0214542 0.3829592 0.6744058 0.016272517 -0.3038541
-0.54471284 0.12831578 1.1254355 0.3112778 -0.34676498 0.4868178 -0.83252865 -0.7041549
-0.047077864 -0.041812472 -1.0817816 -0.8317131 -0.37328464 0.25747955 -0.5194797 0.6647935
0.64459133 0.917677 0.23259012 0.119312055 -0.43126872 -0.6182253 -0.38340312 0.12336498
-0.475105 -0.13424544 -0.4531049 -0.72278684 0.69441706 0.14529599 0.42326817 -0.48166695
0.2771841 0.08826112 0.8616433 -0.07885553 0.77816665 -0.64085335 -0.92719084 -0.10025576
0.0571969 0.6103338 -0.8904184 -0.8291966 -0.8365894 0.64206016 -0.07610114 0.37031597
0.6328086 -0.30639142 0.4612627 0.12635349 0.30103877 0.5248432 0.19976377 0.67769605
0.63893616 0.0892726 -0.3470716 -0.6714828 0.5673516 -0.15684257 -0.01711639 -0.0190562
-0.19455625 0.15997157 -0.34148586 -0.72861254 -0.1486852 -0.4755737 0.29634356 0.3963879
-0.70265204 -0.16427137 0.26652515 0.63397455 1.0970491 -0.6066206 0.6070979 0.12973052

lstm/lstm_cell/bias f4 [32]
00000000: 8e73 013e eb91 953e 97ce 7b3c 7168 10bd
00000010: e965 9abc b275 9b3b ddec 9d3e fc97 923c
00000020: 23ef 643f bb9a 803f 655a 743f 2090 773f
00000030: 4f5d 783f 0799 7f3f d353 813f a347 6c3f
00000040: d949 48bc 3d99 bc3d 137a 243d 28aa bfbd
00000050: 0c37 893c f132 76bd 75b5 993b 641b d6bd
00000060: 5d1a ba3d 0b3b 913e aedb 9d3d 69a3 cbbd
00000070: acc0 4ebd 60bc e53c 08f2 a43e cbd7 19bd
0.12641737 0.2921289 0.015369079 -0.035255853 -0.018847423 0.004744255 0.30844775 0.017894737
0.89427394 1.004722 0.9545043 0.9670429 0.9701738 0.99842876 1.0103706 0.9229681
-0.012224638 0.092089154 0.04015548 -0.093586266 0.016749881 -0.060107175 0.004690821 -0.10454443
0.0908706 0.2836536 0.07707916 -0.099432774 -0.050476715 0.028043926 0.32215905 -0.03755931

dense_4/bias f4 [3]
00000000: 7d7f 85bd 83bb d6bb 4e42 993d
-0.06518457 -0.006553115 0.0748335

std.constant15 f4 [1, 16]
00000000: 717c 5fbe 5415 743e ce7e d73e 61f0 24be
00000010: 8059 3e3e ae38 17bf fd54 c5be 5a08 383e
00000020: d613 123f ef30 22bf e5ee dfbe 05c7 adbe
00000030: f6e0 04bd 40a1 fcbe 3d24 47be 2874 8dbe
-0.21824814 0.23836261 0.42088932 -0.16107322 0.18588829 -0.5907086 -0.38541403 0.17971936
0.5706152 -0.63355917 -0.4373695 -0.33940902 -0.032441102 -0.49341774 -0.19447418 -0.27627683

std.constant16 f4 [16, 1]
00000000: 6906 e9be 588b 99bf 1c8f 2dc0 47d8 6cbe
00000010: af28 28bf ce33 ef3e 0fd9 04c0 85eb 053f
00000020: f004 3abe ca28 07be ea8a 76be 24f2 3140
00000030: 3178 2e40 ad35 8bbe 065a c5bf 1c29 2240
-0.45512703 -1.1995649 -2.7118597 -0.23129378 -0.6568708 0.4671921 -2.0757482 0.523125
-0.18165946 -0.13199154 -0.24076429 2.780404 2.726086 -0.2718939 -1.5418098 2.533759

std.constant17 f4 [2, 32]
00000000: bf8a f2bd 22ed 7abd af56 0ebe f5e1 1a3f
00000010: 9bc2 bb3e 1dce 7b3e 3b6a 7abe 8326 653e
00000020: 8659 85be 76d1 163e 9b50 f43e 697f 5e3e
00000030: 2126 d63d b7d3 b53d 9683 723e 762f cb3e
00000040: 4855 88be 2577 53be 65e4 04be 68b7 733e
00000050: 9d81 1c3f 508a f13d 237b 993d dc57 753d
00000060: 88ad 563e abb6 9e3d 6fd4 a3bd afc3 4d3d
00000070: 648e 23be 76ea 53be 745f d2bd 02ed cebe
00000080: 9541 ddbe 3be5 c0bd 92a9 90bc 1fbc d0be
00000090: 510e da3e dd39 143e c472 acbd e3eb d33d
000000a0: 7aab 023e ffdd 5bbd d4ff 583d 6d3a a3bc
000000b0: a786 9ebe ebea 443e 9308 eebd 3be8 a13e
000000c0: 096b f13d e7b8 06be a868 acbd 6496 9f3d
000000d0: 9e4b 29be f29b a0be 101d aabe a60f a13d
000000e0: 4555 bfbe b755 80be 1dea 25be 41d3 bcbe
000000f0: 7910 f53d 538e 0d3e 06bb 59be 4607 e03c
-0.1184287 -0.061261304 -0.13900255 0.60501033 0.3667191 0.24590345 -0.24454586 0.22377972
-0.26044863 0.1472834 0.47717747 0.2172829 0.10456491 0.08878272 0.23683009 0.39684647
-0.26627564 -0.20650919 -0.1297775 0.23800433 0.61135274 0.11793959 0.074941896 0.059898242
0.20964634 0.07749685 -0.07999503 0.050235447 -0.15972286 -0.20694908 -0.102721125 -0.40415198
-0.43214098 -0.09418722 -0.017658982 -0.40768525 0.42589048 0.14475198 -0.08420327 0.10347726
0.12760726 -0.05367851 0.05297835 -0.01992532 -0.30962107 0.19230239 -0.11622729 0.3162249
0.117879935 -0.13156472 -0.08418399 0.077923566 -0.16532752 -0.31368977 -0.33225298 0.07864313
-0.37369743 -0.25065395 -0.16202588 -0.36879924 0.119660325 0.13823824 -0.2126275 0.027347218

std.constant18 f4 [32, 2]
00000000: aed5 9cbd a294 183f 437a 61bc 9cb1 5bbf
00000010: a6be 2fbf b186 0ac0 90cb a3bf e860 9fbf
00000020: bad7 003c fa4d 6ebf af41 7dbe a33e dbb9
00000030: 834a 9abf 13f9 88bd b200 e4bc 8da4 383d
00000040: b10a 58bf 3634 1e3f 6e06 9abe 430f e03f
00000050: ce52 7c3e 0b94 a43e 81d9 61bf 1cd4 eabe
00000060: b9ea debe 8d36 65bf dffb 023f e1ba 273d
00000070: 4766 c6bd 4668 c0bb 198e 7f3f 9909 973e
00000080: f8f5 d83d f94b 3f3f 22e2 3a3f 8cc9 d03f
00000090: 4842 c03f fd53 903f 7ce7 633f a161 a3bf
000000a0: c0ce 45be d348 5a3d cde0 b13f cac8 77bd
000000b0: d64f 54bf b8fd ca3e 87bf d1bf 766c fbbf
000000c0: 7157 1a3d 394c 43bf 97d7 4ebe 5284 59bf
000000d0: 99da 50bf 5873 3b3e 180d 21bf 204c 043f
000000e0: 13a4 a93f 97c6 023f 83c5 9dbe bd2e 663f
000000f0: 714b 5e3f 3177 ac3e cbca 393e 6041 8fbf
-0.07657944 0.59601796 -0.01376206 -0.85817885 -0.6865028 -2.164471 -1.2796497 -1.2451448
0.007863933 -0.9308773 -0.24732088 -0.00041817603 -1.2053989 -0.06688132 -0.027832363 0.045078803
-0.84391314 0.6179842 -0.3008303 1.7504658 0.24640962 0.32144198 -0.8822251 -0.45864952
-0.43538454 -0.8953636 0.51165575 0.040949706 -0.096874766 -0.0058718054 0.998262 0.2949951
0.1059379 0.747253 0.730013 1.6311507 1.5020227 1.1275631 0.8902509 -1.2764169
-0.1931715 0.053292107 1.3896729 -0.06049422 -0.8293432 0.39646697 -1.6386575 -1.9642475
0.037681047 -0.7628818 -0.20199428 -0.8496753 -0.81583554 0.18305719 -0.62910604 0.5167866
1.3253196 0.51084274 -0.30814752 0.89915067 0.86833864 0.33684686 0.18143766 -1.1191826

std.constant19 f4 [32, 8]
00000000: 7321 1dbd 6c28 c23c b6ab 023e 587e 1abe
00000010: 6c9d 56be 7eec 94be c1a0 c6be 840d c8bd
00000020: 5a69 0b3f cd44 0d3e 2967 9bbe 1e47 03bf
00000030: e0de 2bbe 09e7 36be a5e3 a7be a824 d33e
00000040: ef6e 83be b14b 64bd c343 f8be 2b94 43be
00000050: b2d1 103d 8da6 bd3d 56d7 4dbb e5e8 7bbb
00000060: 09d0 99be 88b4 9b3e c214 96bd 2ea9 b63d
00000070: ce90 a53e dd79 31bd 9ff3 c8bb 8faa 87bd
00000080: 0fd8 623d e0ed 44be 13e2 ba3d 3178 83be
00000090: 3896 063c 7956 0bbd 16b3 a53e a398 22be
000000a0: 34ce a6bd fc2c 0bbe 2527 f6bc 41fc 0cbd
000000b0: 1d50 3d3e f3a6 e7be 1e4b abb9 d30f f7bc
000000c0: 828a b23e c9d9 6abb 634d 20bd dc74 01bf
000000d0: a88c 40be d666 d3be c755 87be 1f64 8d3e
000000e0: 2169 72bd 799e 1dbe 3368 3dbe a257 38be
000000f0: 0148 213e 75c0 a2bc 45d8 3fbd e4d4 f2be
00000100: 4c9b cfbc eba8 7fbe ba6c 9f3d 035f bc3d
00000110: 68cf d93e 162c 6ebd 9144 b63e 958d 263e
00000120: 4768 48bd c3aa b53e 4834 3dbd ab15 e5bb
00000130: 9cfa 67bb 1380 fcbd b683 e73d 7a02 9d3d
00000140: 40b3 1fbc 41bc 8bbe 281e 9b3d b915 683e
00000150: af4b 6d3d 015c 0e3f 16d1 3bbc 075b d3bb
00000160: 6e3a 9e3e d991 5f3e c29c cbbd c6d8 45be
00000170: aad5 8e3e 1c33 5dbd b471 2bbe e820 d53c
00000180: 630f a8bd 5dac 6fbe 9d91 be3e f163 65be
00000190: 5c99 d7bd 1828 473c 5d4e bfbc 49f0 923e
000001a0: e530 173c efa0 59be e630 303e fa9c 74be
000001b0: 54f5 5dbe 1bd7 15be 8214 d03d 3edf 52bd
000001c0: 1df0 3cbd ddfd 6abc 9d2a 7bbe 2223 e0be
000001d0: bce3 0f3d 86ed 8b3d 88b5 aabe 16a4 25bc
000001e0: 1b0c 39bd aaca 363e 64d0 1bbe 6fb0 cb3e
000001f0: 877f 7c3e c367 9e3e 04c2 bdbd d616 34be
00000200: 3803 023e 6aeb 303e ccda cfbd cf50 303e
00000210: 9495 88be 1876 9bbc d3b9 863e d486 803d
00000220: b2ad b43e 7975 8bbe d499 a4bd c082 43bd
00000230: ec09 5e3d 9040 c0bd 7608 aabd ffff 083d
00000240: a30d f9bd 893d d63d 9b97 853e 0a6a 5cbe
00000250: 48ed 6fbc d8c4 513d 81af 8abe c262 3b3e
00000260: 7cc6 05be 49a7 d4bd c123 893e 3ad4 b6bd
00000270: 5eb4 0c3e fdfc d73e 9403 bf3d 6dbd f4be
00000280: aaad b1bd 0643 f0bd 34d5 1cbe acaf c1bc
00000290: dab4 bf3d 146a 05bd 64fa c1be e213 fb3d
000002a0: a698 45bd 4061 373c f288 13be 6c9e 8f3d
000002b0: 95b8 16be 47a2 2ebe 50dc 29be a510 bc3d
000002c0: 4f86 1d3e 677b 0d3c f5d0 5c3e d991 fe3d
000002d0: 1b3f 653e 0415 dbbd aad5 9bbe 38f7 4c3e
000002e0: 18c8 cd3d ab0f 943b e733 68be b6df 7cbd
000002f0: 6dbb 21bd fbaf d93d 3c4b 16bd bdbb 943d
00000300: d9bf 063e 7704 d1bd 3ba5 c6bb 73f4 a2bd
00000310: 2629 d7be 5e4c 3c3e 3ee1 6dbe ae44 133e
00000320: bd3b 2d3d 6aa1 78be f29b 1cbe a818 eb3c
00000330: 2afa 64be 4ba9 c8be 418d cebe 09e9 c73e
00000340: d63f 43be 02a6 b13e 0314 49be e916 74be
00000350: 43af 06be 8993 e43d 2578 363d e7f9 6f3e
00000360: 286c e33d d681 bb3e b853 d73d 970d 403d
00000370: 8d08 853e 5517 143e 1133 60bb daf7 4bbe
00000380: e388 9dbd d26b 12be e9a5 863e 1ac0 b6bc
00000390: 5a8f 1c3e 09c9 273e 6b15 bc3d 2af4 373e
000003a0: 235f 90be ea44 99bc f11b 833d 088a c7bd
000003b0: 7639 f3bd 6a9f bf3c ba63 523e f0b8 793e
000003c0: b681 023e 1f74 90bc ce59 38be f524 2dbe
000003d0: c506 15bf a7e6 f2be a8b6 15bf 0d51 d03d
000003e0: 5215 83bc 0128 7cbe 01c2 c93d 06c4 d83d
000003f0: 04fc 703e 4c30 c63e 11b3 1e3e f765 9a3d
-0.038361978 0.023700915 0.12760815 -0.15087259 -0.20958489 -0.2908668 -0.3879452 -0.09768203
0.5445763 0.13795777 -0.30352142 -0.5128039 -0.16784239 -0.1786157 -0.32790866 0.41238904
-0.25670573 -0.055736247 -0.48489198 -0.1909949 0.03535623 0.09260283 -0.0031408868 -0.0038438377
-0.3004153 0.30411172 -0.07328178 0.08918987 0.3233704 -0.04332911 -0.0061325575 -0.06624328
0.05538183 -0.19231367 0.091251515 -0.25677636 0.008214526 -0.034018014 0.32363194 -0.15878539
-0.08144799 -0.13591379 -0.030047962 -0.034420256 0.18487592 -0.4524456 -0.00032671628 -0.030158913
0.34871298 -0.0035835376 -0.0391363 -0.5056894 -0.18803656 -0.41289395 -0.2643263 0.2761545
-0.05918229 -0.15392484 -0.1849678 -0.1800218 0.15750124 -0.019867161 -0.04683711 -0.47428048
-0.025342606 -0.24966781 0.0778441 0.091978095 0.4254105 -0.058147512 0.35599187 0.16264947
-0.04892757 0.35481843 -0.046192437 -0.0069911084 -0.0035397178 -0.12329116 0.11304419 0.07666488
-0.009747326 -0.27292064 0.07574111 0.22664537 0.057933506 0.55609137 -0.011463424 -0.0064500603
0.30903953 0.2183298 -0.099420086 -0.19320974 0.27897388 -0.05400382 -0.16742593 0.026016667
-0.0820606 -0.23405595 0.3722047 -0.22401406 -0.10527298 0.012155555 -0.023352796 0.28698948
0.009227966 -0.21252798 0.17206153 -0.23888007 -0.21675617 -0.14632837 0.101601616 -0.05148243
-0.046127427 -0.014342752 -0.24527974 -0.43776804 0.035129294 0.068324134 -0.33341622 -0.010109922
-0.04517756 0.17850748 -0.15216213 0.39783046 0.24658023 0.3093854 -0.09265521 -0.17586836
0.1269654 0.17277303 -0.10149154 0.17218326 -0.2667662 -0.01897721 0.26313648 0.062757164
0.3528877 -0.27238062 -0.08037153 -0.047732115 0.05420868 -0.09387314 -0.08302395 0.033447262
-0.12160804 0.10460956 0.26092228 -0.21524826 -0.014643975 0.051213115 -0.27087024 0.18299392
-0.13063997 -0.103834696 0.2678509 -0.08927198 0.1374068 0.42185202 0.09326854 -0.4780077
-0.08675702 -0.11731534 -0.15315706 -0.023643337 0.093606666 -0.032571867 -0.37886345 0.12259652
-0.04824128 0.01119262 -0.14407709 0.070126384 -0.1471885 -0.17054091 -0.16587949 0.09182862
0.15383266 0.008635378 0.21564086 0.12430162 0.22387354 -0.10697368 -0.3043645 0.20016181
0.100479305 0.0045184693 -0.22676049 -0.061736785 -0.039485384 0.10629269 -0.036692843 0.07262371
0.13159122 -0.1020593 -0.0060621775 -0.07956781 -0.4202358 0.18388507 -0.23230454 0.14381668
0.0422933 -0.24280325 -0.15293863 0.02869828 -0.22361055 -0.3919166 -0.40342143 0.3904498
-0.1906732 0.34696966 -0.1963654 -0.23836865 -0.13152795 0.111609526 0.044548173 0.23435174
0.111046135 0.36622494 0.10514015 0.04688796 0.25983086 0.14462025 -0.0034210125 -0.19918767
-0.07692125 -0.14298943 0.26298454 -0.022308398 0.1528906 0.16385283 0.09183773 0.17964235
-0.28197584 -0.018709619 0.06401814 -0.09743124 -0.11876194 0.023391444 0.20545855 0.24386954
0.12744793 -0.017633496 -0.18003008 -0.16908629 -0.58213454 -0.474416 -0.58481836 0.10171709
-0.016001377 -0.24624635 0.098514564 0.105842635 0.23533636 0.38708723 0.15497996 0.075389795

std.constant20 f4 [32, 8]
00000000: 18a4 86bd 49d1 81bd 8766 b43e f6bc aa3e
00000010: 34be 13be c131 09be 3f03 a43e 2719 4a3e
00000020: a7d6 1b3f 8b40 ddbd 7c40 fb3e eef4 123f
00000030: 267f 0cbe 7a5b 7d3e b9f5 2a3d 9639 0f3f
00000040: 95bd 163f 0e42 633d fcef 9bbe 491a d7be
00000050: 05b7 adbe 7def a63e a95b 343e 36e6 e93b
00000060: b66a 003f a675 13bf 9045 e5be 6c51 91be
00000070: 9662 a83d 41b6 b8be 83ff b4be 7c93 89be
00000080: e3c0 d1bd 280f 9c3e bff3 8f3e fe21 db3e
00000090: ab05 b0be aedc 3ebe 66c0 283e 5977 adbe
000000a0: d327 ccbe 9b78 eb3e f3bb 44be 21ae 633e
000000b0: fe26 703e b411 4ebd 9853 dbbd e891 46be
000000c0: 15d9 d9be 1be8 863e c61d 213f 01b3 8d3e
000000d0: 08cc 2b3f 4a5d 6d3e 8f9c 9e3e a48b bc3e
000000e0: 33a1 633e 84c6 453e a730 fa3d 13e8 fbbd
000000f0: 182b 0bbd cea5 af3d cf91 83bd 2ea8 dabc
00000100: 6c75 693e f956 2b3e 2d7d a8bd 234c 7cbe
00000110: 6f4a 903d 6ade 803e f7b2 85be e4df 97be
00000120: f95c dd3c 6707 c03e 23b9 b33e c9f9 9cbe
00000130: 4866 6d3e be23 5cbd ab81 38be c9fb 303d
00000140: 667b 403e cec2 9c3e 7fc0 c8bd d824 7abe
00000150: 8ac7 93be 4edb 3ebe 805d 913d f17a ad3e
00000160: 1aed c93e beef c6bd 1fee e3be f5e7 07bd
00000170: 68bb 703e 3709 7abe 408c 223e 4bca 57bd
00000180: 46f7 13bf 998c 923e 89bd 8abe 466b 443c
00000190: 976e 88be 8e22 0ebe 493f 0cbe 17f3 00bf
000001a0: 78dd 13be b329 f83e c4b0 893d b083 91be
000001b0: f867 593e 2280 c43d 3c33 c83c 4e93 9cbe
000001c0: b9ad a03e c073 21bf 05b8 97bc cdb6 80bd
000001d0: c1e7 273e fdb0 e3be 1560 e2be f832 8b3e
000001e0: b868 a6be ac83 053f a305 5fbe 3cb9 04be
000001f0: f0bb a4be a72d 933e f2a7 1dbd b9c7 e13d
00000200: a0e4 1b3f 7705 dc3e 3a6f 8ebe 6563 afbe
00000210: 4986 b03d 19eb ab3e b437 843d 4d4d f4ba
00000220: 1f01 a13e a256 f8be 66f1 4abd c56f 083d
00000230: 74e2 443d 0ad4 a8be 2ddc b6be 4ada 733e
00000240: 012d a5be b367 b43e c88c 043d 5a57 c33d
00000250: 2534 97be 4f25 42be 39c9 5a3e 6e61 95be
00000260: 25a0 abbe d65c 92bd e0df 663e 356b 6dbe
00000270: 5f26 7dbe 98b3 dcbd 7740 7fbe 91a2 3e3e
00000280: 5ecd 93ba 9f85 aebe 8db7 dbbe 12a6 223e
00000290: 3967 03be b3db 313d 60ab f1be 2878 04be
000002a0: 51d7 843d e22a a6bd 7095 a0bd 3072 05bf
000002b0: 6668 0a3e 0fae 8a3e ce41 9abe cebe 91be
000002c0: 900d 533e d119 123f 5848 bb3e 08d9 02be
000002d0: 4b2f 8ebe e9eb c3bd dad2 98bd fb5e b4be
000002e0: 8028 0dbf 1170 03be 1ba9 f73c 49df a73d
000002f0: ea56 7e3e 8980 9c3e a94f bc3e dff1 07be
00000300: fd28 133f ae82 e53e 1009 713e 7548 5f3e
00000310: c874 d3bd ae3a febd cf5e 90be de95 36be
00000320: 69a4 193f 697c ba3e 583b c6bc 1235 b9bd
00000330: 4303 fb3e c002 ee3e 106e 9d3e f149 5e3e
00000340: f032 3e3e 853f 60be 1ee3 a53e f69f 40be
00000350: ed02 afbe 24c1 b13e eb29 88be 12e9 b8bd
00000360: b3a1 013f 1721 96be 7cc8 00bf 666b a7bd
00000370: 2e4e 333d ef53 e3bc 2563 0bbf 8fff 9e3e
00000380: 36ac 8cbe 9416 f13e d387 e13d 0b9b 133f
00000390: b2b7 90be 6adb f23d ba46 9f3e c18b 15be
000003a0: 9691 f2be 2b40 c53d bc7d a9bd e10a 9f3e
000003b0: f11c d33e b8a1 133e f9c3 723e b11d 93be
000003c0: ae70 633e 2196 583b 9f8c 063f 494e 343f
000003d0: a7c6 243f c4f4 9e3d 011e 053e 4747 e0bc
000003e0: 33ab aebd bffe 073f a15d cd3e 4760 583e
000003f0: 1a4a 7e3e 14a0 3d3e 21f4 f7bc f49a abbd
-0.06574267 -0.06338746 0.35234472 0.3334729 -0.14428025 -0.13397886 0.32033727 0.19736157
0.6087441 -0.10803326 0.49072635 0.57404983 -0.13720378 0.24741927 0.041738246 0.55947244
0.5888303 0.055482917 -0.3045653 -0.4201224 -0.33928695 0.3260459 0.1761309 0.007138039
0.5016283 -0.5760139 -0.44779634 -0.28382432 0.08221929 -0.3607655 -0.3535119 -0.26870334
-0.10241868 0.30480313 0.2811565 0.4279937 -0.34379324 -0.1863887 0.16479644 -0.33880118
-0.39874133 0.45990452 -0.19212322 0.22234394 0.23452374 -0.05030985 -0.107093036 -0.19391596
-0.42548433 0.26348957 0.62936056 0.27675632 0.671082 0.23180118 0.3097882 0.36825287
0.22229461 0.19314009 0.12216311 -0.12300124 -0.033976644 0.085765466 -0.06424295 -0.026691522
0.22798699 0.16732396 -0.082270004 -0.24638419 0.07045447 0.25169688 -0.26113102 -0.29663002
0.027021872 0.37505648 0.35102186 -0.3065932 0.23183548 -0.053745024 -0.18018214 0.04320887
0.18797073 0.30617374 -0.09802341 -0.24428117 -0.28863174 -0.18638346 0.07097912 0.3388286
0.39438707 -0.09713696 -0.4451761 -0.033180196 0.2350899 -0.24417578 0.15873814 -0.052683156
-0.57799184 0.28622892 -0.2709773 0.011988467 -0.26646873 -0.13880369 -0.13696016 -0.50370926
-0.14439952 0.48469314 0.067231685 -0.28420782 0.21231067 0.09594752 0.024438493 -0.30581135
0.3138254 -0.63067245 -0.018520365 -0.062848665 0.16397001 -0.4447097 -0.4421393 0.27187324
-0.3250177 0.5215404 -0.21779494 -0.12961286 -0.32174635 0.28745767 -0.038490243 0.11024422
0.6089573 0.4297292 -0.27819234 -0.3425552 0.08619363 0.33577803 0.06455937 -0.001863876
0.31446168 -0.48503596 -0.04954662 0.033309717 0.048067525 -0.32974273 -0.35714856 0.2381374
-0.32260898 0.35235366 0.032360822 0.09538145 -0.2953197 -0.18959545 0.21365823 -0.29175895
-0.33520618 -0.07146613 0.22546339 -0.23185427 -0.24721669 -0.10776442 -0.24926935 0.18616702
-0.0011276414 -0.3408632 -0.42913476 0.15883663 -0.12832345 0.043422412 -0.4720106 -0.12936461
0.06486381 -0.08113648 -0.07841003 -0.5212736 0.13516387 0.2708592 -0.3012833 -0.28465885
0.20610642 0.5707064 0.3657863 -0.12778103 -0.27770457 -0.09566481 -0.07462092 -0.35228714
-0.55139923 -0.12835719 0.030232003 0.08196885 0.24837843 0.30566815 0.36779526 -0.1327586
0.5748442 0.44826263 0.23538613 0.21804984 -0.10325009 -0.12413536 -0.28197333 -0.17830607
0.60016495 0.36423042 -0.02419822 -0.090433255 0.49025926 0.46486473 0.30748034 0.21707894
0.18574119 -0.21899231 0.3239984 -0.1881102 -0.3418192 0.34717667 -0.2659448 -0.0902883
0.5063736 -0.2932212 -0.50305915 -0.081747815 0.04377573 -0.027749984 -0.5444816 0.3105435
-0.27475137 0.47087538 0.110122345 0.5765845 -0.28265148 0.11858256 0.31108648 -0.14604093
-0.47376698 0.0963138 -0.08275935 0.31062987 0.41233018 0.1441716 0.2370757 -0.2873359
0.22210953 0.0033048468 0.5255832 0.70431954 0.6436562 0.07761529 0.12999727 -0.027377738
-0.085287474 0.53123087 0.40110496 0.21130477 0.24832955 0.18518096 -0.030267777 -0.08379164

std.constant21 f4 [3, 24]
00000000: 220e 29bf 18b8 5cbe 623c ac3e 81f7 873e
00000010: 75aa 91bd 6cfc a33e 93d3 03bf 76a8 74bd
00000020: db04 153f 0e76 98ba e0e6 36bf 07e9 4fbf
00000030: f468 cdbc 8ec9 2cbf db7d dc3d 7c6b 47be
00000040: 1cd8 46be 0e1c f23d 1087 383f debc c83c
00000050: 8d58 fe3d 302f 72bc 22aa ea3e a876 eabe
00000060: b9f0 953e 550a 8f3e f45c 7bbe 84b2 a4be
00000070: df77 b33e f423 d83e ae1e bdbe b601 ddbe
00000080: 4320 55bf be43 313f 7cce 1abc 252b 0abe
00000090: c4dc c2be acec 87be a99f 02bf b6c7 8c3e
000000a0: 607e 973e eaee 25bf 75f1 96be 5162 123f
000000b0: 8479 1f3f ba26 a83e ac88 0fbf 5f40 dc3e
000000c0: b492 0b3e 7345 f0be 875c 303e ab61 cd3e
000000d0: 1971 edbe 2aff 503c 63e1 283f 77c3 c93e
000000e0: d7f1 993e ccf9 1bbf 7c64 023d ae35 b3bd
000000f0: 944c 3bbf 9048 fb3e 044b 5a3e f13d c5be
00000100: 4e39 9cbd e1ea 113f a85a 36bf ef81 18be
00000110: d6ee dbbe 85c6 15bf 0501 0cbe 8171 ff3e
-0.6603719 -0.21554601 0.33639818 0.26556018 -0.0711259 0.3202852 -0.5149471 -0.05973097
0.58210534 -0.0011631863 -0.7144604 -0.81214947 -0.02507446 -0.6749505 0.107661925 -0.19474596
-0.19418377 0.11821757 0.7208109 0.024504121 0.124192335 -0.014781758 0.45832926 -0.45793653
0.2928522 0.2793757 -0.24547178 -0.32167447 0.35052392 0.4221493 -0.3693747 -0.43165368
-0.8325235 0.6924399 -0.009448644 -0.13493021 -0.38059056 -0.26547754 -0.5102487 0.27496117
0.29588604 -0.6481768 -0.29481092 0.5718127 0.62294793 0.32842046 -0.5606792 0.4301786
0.13630182 -0.46927986 0.17222796 0.40113577 -0.4637535 0.012756148 0.6596891 0.3940694
0.30067322 -0.60928035 0.03183411 -0.08750473 -0.73163724 0.49078798 0.21317679 -0.3852382
-0.076281175 0.5699902 -0.7123208 -0.14893316 -0.42955655 -0.5850604 -0.13672264 0.49891284

lstm/lstm_cell/bias1 f4 [32]
00000000: 8e73 013e eb91 953e 97ce 7b3c 7168 10bd
00000010: e965 9abc b275 9b3b ddec 9d3e fc97 923c
00000020: 23ef 643f bb9a 803f 655a 743f 2090 773f
00000030: 4f5d 783f 0799 7f3f d353 813f a347 6c3f
00000040: d949 48bc 3d99 bc3d 137a 243d 28aa bfbd
00000050: 0c37 893c f132 76bd 75b5 993b 641b d6bd
00000060: 5d1a ba3d 0b3b 913e aedb 9d3d 69a3 cbbd
00000070: acc0 4ebd 60bc e53c 08f2 a43e cbd7 19bd
0.12641737 0.2921289 0.015369079 -0.035255853 -0.018847423 0.004744255 0.30844775 0.017894737
0.89427394 1.004722 0.9545043 0.9670429 0.9701738 0.99842876 1.0103706 0.9229681
-0.012224638 0.092089154 0.04015548 -0.093586266 0.016749881 -0.060107175 0.004690821 -0.10454443
0.0908706 0.2836536 0.07707916 -0.099432774 -0.050476715 0.028043926 0.32215905 -0.03755931

std.constant37 f4 [32, 8]
00000000: 18a4 86bd 49d1 81bd 8766 b43e f6bc aa3e
00000010: 34be 13be c131 09be 3f03 a43e 2719 4a3e
00000020: a7d6 1b3f 8b40 ddbd 7c40 fb3e eef4 123f
00000030: 267f 0cbe 7a5b 7d3e b9f5 2a3d 9639 0f3f
00000040: 95bd 163f 0e42 633d fcef 9bbe 491a d7be
00000050: 05b7 adbe 7def a63e a95b 343e 36e6 e93b
00000060: b66a 003f a675 13bf 9045 e5be 6c51 91be
00000070: 9662 a83d 41b6 b8be 83ff b4be 7c93 89be
00000080: e3c0 d1bd 280f 9c3e bff3 8f3e fe21 db3e
00000090: ab05 b0be aedc 3ebe 66c0 283e 5977 adbe
000000a0: d327 ccbe 9b78 eb3e f3bb 44be 21ae 633e
000000b0: fe26 703e b411 4ebd 9853 dbbd e891 46be
000000c0: 15d9 d9be 1be8 863e c61d 213f 01b3 8d3e
000000d0: 08cc 2b3f 4a5d 6d3e 8f9c 9e3e a48b bc3e
000000e0: 33a1 633e 84c6 453e a730 fa3d 13e8 fbbd
000000f0: 182b 0bbd cea5 af3d cf91 83bd 2ea8 dabc
00000100: 6c75 693e f956 2b3e 2d7d a8bd 234c 7cbe
00000110: 6f4a 903d 6ade 803e f7b2 85be e4df 97be
00000120: f95c dd3c 6707 c03e 23b9 b33e c9f9 9cbe
00000130: 4866 6d3e be23 5cbd ab81 38be c9fb 303d
00000140: 667b 403e cec2 9c3e 7fc0 c8bd d824 7abe
00000150: 8ac7 93be 4edb 3ebe 805d 913d f17a ad3e
00000160: 1aed c93e beef c6bd 1fee e3be f5e7 07bd
00000170: 68bb 703e 3709 7abe 408c 223e 4bca 57bd
00000180: 46f7 13bf 998c 923e 89bd 8abe 466b 443c
00000190: 976e 88be 8e22 0ebe 493f 0cbe 17f3 00bf
000001a0: 78dd 13be b329 f83e c4b0 893d b083 91be
000001b0: f867 593e 2280 c43d 3c33 c83c 4e93 9cbe
000001c0: b9ad a03e c073 21bf 05b8 97bc cdb6 80bd
000001d0: c1e7 273e fdb0 e3be 1560 e2be f832 8b3e
000001e0: b868 a6be ac83 053f a305 5fbe 3cb9 04be
000001f0: f0bb a4be a72d 933e f2a7 1dbd b9c7 e13d
00000200: a0e4 1b3f 7705 dc3e 3a6f 8ebe 6563 afbe
00000210: 4986 b03d 19eb ab3e b437 843d 4d4d f4ba
00000220: 1f01 a13e a256 f8be 66f1 4abd c56f 083d
00000230: 74e2 443d 0ad4 a8be 2ddc b6be 4ada 733e
00000240: 012d a5be b367 b43e c88c 043d 5a57 c33d
00000250: 2534 97be 4f25 42be 39c9 5a3e 6e61 95be
00000260: 25a0 abbe d65c 92bd e0df 663e 356b 6dbe
00000270: 5f26 7dbe 98b3 dcbd 7740 7fbe 91a2 3e3e
00000280: 5ecd 93ba 9f85 aebe 8db7 dbbe 12a6 223e
00000290: 3967 03be b3db 313d 60ab f1be 2878 04be
000002a0: 51d7 843d e22a a6bd 7095 a0bd 3072 05bf
000002b0: 6668 0a3e 0fae 8a3e ce41 9abe cebe 91be
000002c0: 900d 533e d119 123f 5848 bb3e 08d9 02be
000002d0: 4b2f 8ebe e9eb c3bd dad2 98bd fb5e b4be
000002e0: 8028 0dbf 1170 03be 1ba9 f73c 49df a73d
000002f0: ea56 7e3e 8980 9c3e a94f bc3e dff1 07be
00000300: fd28 133f ae82 e53e 1009 713e 7548 5f3e
00000310: c874 d3bd ae3a febd cf5e 90be de95 36be
00000320: 69a4 193f 697c ba3e 583b c6bc 1235 b9bd
00000330: 4303 fb3e c002 ee3e 106e 9d3e f149 5e3e
00000340: f032 3e3e 853f 60be 1ee3 a53e f69f 40be
00000350: ed02 afbe 24c1 b13e eb29 88be 12e9 b8bd
00000360: b3a1 013f 1721 96be 7cc8 00bf 666b a7bd
00000370: 2e4e 333d ef53 e3bc 2563 0bbf 8fff 9e3e
00000380: 36ac 8cbe 9416 f13e d387 e13d 0b9b 133f
00000390: b2b7 90be 6adb f23d ba46 9f3e c18b 15be
000003a0: 9691 f2be 2b40 c53d bc7d a9bd e10a 9f3e
000003b0: f11c d33e b8a1 133e f9c3 723e b11d 93be
000003c0: ae70 633e 2196 583b 9f8c 063f 494e 343f
000003d0: a7c6 243f c4f4 9e3d 011e 053e 4747 e0bc
000003e0: 33ab aebd bffe 073f a15d cd3e 4760 583e
000003f0: 1a4a 7e3e 14a0 3d3e 21f4 f7bc f49a abbd
-0.06574267 -0.06338746 0.35234472 0.3334729 -0.14428025 -0.13397886 0.32033727 0.19736157
0.6087441 -0.10803326 0.49072635 0.57404983 -0.13720378 0.24741927 0.041738246 0.55947244
0.5888303 0.055482917 -0.3045653 -0.4201224 -0.33928695 0.3260459 0.1761309 0.007138039
0.5016283 -0.5760139 -0.44779634 -0.28382432 0.08221929 -0.3607655 -0.3535119 -0.26870334
-0.10241868 0.30480313 0.2811565 0.4279937 -0.34379324 -0.1863887 0.16479644 -0.33880118
-0.39874133 0.45990452 -0.19212322 0.22234394 0.23452374 -0.05030985 -0.107093036 -0.19391596
-0.42548433 0.26348957 0.62936056 0.27675632 0.671082 0.23180118 0.3097882 0.36825287
0.22229461 0.19314009 0.12216311 -0.12300124 -0.033976644 0.085765466 -0.06424295 -0.026691522
0.22798699 0.16732396 -0.082270004 -0.24638419 0.07045447 0.25169688 -0.26113102 -0.29663002
0.027021872 0.37505648 0.35102186 -0.3065932 0.23183548 -0.053745024 -0.18018214 0.04320887
0.18797073 0.30617374 -0.09802341 -0.24428117 -0.28863174 -0.18638346 0.07097912 0.3388286
0.39438707 -0.09713696 -0.4451761 -0.033180196 0.2350899 -0.24417578 0.15873814 -0.052683156
-0.57799184 0.28622892 -0.2709773 0.011988467 -0.26646873 -0.13880369 -0.13696016 -0.50370926
-0.14439952 0.48469314 0.067231685 -0.28420782 0.21231067 0.09594752 0.024438493 -0.30581135
0.3138254 -0.63067245 -0.018520365 -0.062848665 0.16397001 -0.4447097 -0.4421393 0.27187324
-0.3250177 0.5215404 -0.21779494 -0.12961286 -0.32174635 0.28745767 -0.038490243 0.11024422
0.6089573 0.4297292 -0.27819234 -0.3425552 0.08619363 0.33577803 0.06455937 -0.001863876
0.31446168 -0.48503596 -0.04954662 0.033309717 0.048067525 -0.32974273 -0.35714856 0.2381374
-0.32260898 0.35235366 0.032360822 0.09538145 -0.2953197 -0.18959545 0.21365823 -0.29175895
-0.33520618 -0.07146613 0.22546339 -0.23185427 -0.24721669 -0.10776442 -0.24926935 0.18616702
-0.0011276414 -0.3408632 -0.42913476 0.15883663 -0.12832345 0.043422412 -0.4720106 -0.12936461
0.06486381 -0.08113648 -0.07841003 -0.5212736 0.13516387 0.2708592 -0.3012833 -0.28465885
0.20610642 0.5707064 0.3657863 -0.12778103 -0.27770457 -0.09566481 -0.07462092 -0.35228714
-0.55139923 -0.12835719 0.030232003 0.08196885 0.24837843 0.30566815 0.36779526 -0.1327586
0.5748442 0.44826263 0.23538613 0.21804984 -0.10325009 -0.12413536 -0.28197333 -0.17830607
0.60016495 0.36423042 -0.02419822 -0.090433255 0.49025926 0.46486473 0.30748034 0.21707894
0.18574119 -0.21899231 0.3239984 -0.1881102 -0.3418192 0.34717667 -0.2659448 -0.0902883
0.5063736 -0.2932212 -0.50305915 -0.081747815 0.04377573 -0.027749984 -0.5444816 0.3105435
-0.27475137 0.47087538 0.110122345 0.5765845 -0.28265148 0.11858256 0.31108648 -0.14604093
-0.47376698 0.0963138 -0.08275935 0.31062987 0.41233018 0.1441716 0.2370757 -0.2873359
0.22210953 0.0033048468 0.5255832 0.70431954 0.6436562 0.07761529 0.12999727 -0.027377738
-0.085287474 0.53123087 0.40110496 0.21130477 0.24832955 0.18518096 -0.030267777 -0.08379164
